model.pth (torch, 328315 bytes, 8 tensors)

conv1.0.weight f4 [16, 3, 5, 5]
000000 36 f5 e0 bc 22 0e 1b be 65 d6 b8 bd 8f 2c a5 bd
       -0.027460676 -0.1514211 -0.090252675 -0.080651395
000010 5b a8 8e bc bf ad 2f bd 75 a2 1b be a4 c0 95 3d
       -0.017414263 -0.042890307 -0.15198691 0.07312134
000020 1a 15 9d 3d 72 66 b3 bd c0 a7 25 be a9 42 bd bc
       0.076700404 -0.08759774 -0.16177273 -0.023103075
000030 53 32 23 bd b6 f3 cd bd d8 1f bd bc e8 41 0e be
       -0.039842915 -0.1005625 -0.023086473 -0.13892329
000040 20 d3 8f bc a7 95 20 bd 91 6c 20 bd 0b 6e f2 bd
       -0.017556727 -0.03920522 -0.039166037 -0.11837395
000050 3e 84 37 be 1c e3 65 39 6f 83 57 3d 3b 67 cc bd
       -0.1792154 0.00021923747 0.05261558 -0.09980627
000060 8a 31 05 be cf 80 08 be 51 15 95 bb 6b af 07 be
       -0.13007179 -0.13330387 -0.0045496603 -0.1325051
000070 02 e6 dd bd 3d ea ed 3c f9 cd 66 bd 35 a3 d2 bd
       -0.10834886 0.029042358 -0.056348775 -0.102850355
000080 15 86 a3 bd 48 99 76 3c a4 11 ee bd 3f c5 c6 3c
       -0.079845585 0.015051194 -0.116244584 0.024263976
000090 b2 8c a1 bd b7 a9 99 bd 7c 8d c4 bd 6c dd 89 3d
       -0.078881636 -0.07503074 -0.095972985 0.06731686
0000a0 35 d5 03 be 9d b4 e7 bb 0b c0 8a bd f6 bd 18 be
       -0.12874301 -0.0070710913 -0.067749105 -0.14916214
0000b0 6b 16 83 bd 91 e4 90 bd a4 01 c0 3d 73 79 a3 bd
       -0.0640076 -0.070748456 0.09375313 -0.07982149
0000c0 3f 65 d5 bd 41 ba 41 bd 5a bf 6d 3d 59 64 fa 3c
       -0.10419702 -0.047296766 0.058043815 0.030565428
0000d0 25 9a 1e be 57 96 ae bd 09 ad 51 3c 31 25 83 bd
       -0.15488489 -0.08524769 0.012797602 -0.06403578
0000e0 9d 9a 09 be ae 8c 01 be a0 4c cb bb 26 68 cb bd
       -0.13437887 -0.12651321 -0.006204203 -0.09931974
0000f0 79 c8 02 be 72 f3 50 3c a2 e9 1d be 7b 20 d7 bd
       -0.12771787 0.012753354 -0.15421155 -0.10504242
000100 ca 11 83 bd c3 4e bd bb b1 2f 07 bc 64 06 9e bd
       -0.06399877 -0.0057772114 -0.008251117 -0.07716063
000110 55 8a bf 3c 62 a9 40 3d 8b 4b a0 bd 66 12 a9 3d
       0.023381392 0.047036536 -0.07826909 0.08255462
000120 78 12 93 3d 18 f6 0d be c0 dc 82 3c 21 71 1e 3b
       0.07181257 -0.13863409 0.015974402 0.0024176317
000130 cb 6f 26 3d ca c0 63 3d 65 d2 01 bc dc e7 80 bd
       0.040633958 0.05560378 -0.007923697 -0.06294224
000140 d8 5c 0d bd 5c 69 19 3c 60 98 d4 3d ae 98 e7 bc
       -0.03451237 0.009363499 0.10380626 -0.028271046
000150 68 d7 bd 3c a2 65 ed 3c 5c f9 71 3c 07 60 dc bd
       0.023174003 0.028979126 0.014768925 -0.10760503
000160 ad 05 30 3b aa 71 d3 bd 11 59 fb bb e0 6e 5c bb
       0.0026858852 -0.10324414 -0.0076705297 -0.0033635423
000170 d5 b7 82 3c 35 67 ce bd 1e 00 c2 3d c3 b6 a5 bc
       0.015956799 -0.10078279 0.094726786 -0.02022875
000180 81 c6 a9 3d f3 a4 9e bd ff 33 45 bc 44 e1 b2 3d
       0.08289815 -0.07746305 -0.012036323 0.08734372
000190 58 ef bc 3d 09 a3 70 3c 61 3c 17 3d 1a ee 0f bd
       0.09225339 0.014687308 0.036922816 -0.03513918
0001a0 0d 69 ca bd f4 12 d1 bd 99 6c de 3c 8b 1d 6b bd
       -0.09883318 -0.10208693 0.027151393 -0.05740122
0001b0 d4 89 70 bc 90 1a 26 bd fe 0c ce bd e2 26 c4 bc
       -0.014681298 -0.040552676 -0.10061072 -0.023944322
0001c0 dc 8a 20 bd ce 1e 25 3d 6b 1c 06 bd 83 53 41 3d
       -0.039194927 0.04031258 -0.032741945 0.047198784
0001d0 cd 9e 1e bc 63 dc 69 3d 7b c2 bc bd c0 a3 e6 bd
       -0.009681416 0.057094943 -0.09216782 -0.112617016
0001e0 87 6f bc bd 55 53 ea 3c ad ed b1 bd e3 5b 73 3d
       -0.0920096 0.028604189 -0.08687911 0.059413802
0001f0 fc 72 9a 3d dd 9e ae bd 6f 30 a2 bd 2f 59 e3 3d
       0.07541463 -0.085263945 -0.07919394 0.11100995
000200 14 a9 c3 3c a1 85 a6 3c a4 3a c0 bd 82 b6 c6 3c
       0.023884334 0.020327391 -0.09386185 0.024256948
000210 fb 68 da bc d3 49 56 bc b1 58 84 bd cc fe 67 3d
       -0.026661387 -0.0130791245 -0.06462229 0.056639478
000220 6b 14 5e bd e5 20 1c bd c6 33 ae 3c 06 8e ac 3b
       -0.05421869 -0.03811731 0.021264922 0.005265954
000230 76 60 c7 bd 26 7e ca 3d fa b1 91 3d 53 d8 a8 bc
       -0.09735195 0.09887342 0.071140245 -0.020610964
000240 89 79 95 3c 5b 84 e0 bd 83 f4 1e bd b9 2d a2 3d
       0.018246429 -0.10962745 -0.038807403 0.07918877
000250 8b 5b b6 3d 07 93 d1 bd f8 73 4c bd 65 9a 3f bd
       0.08904179 -0.10233121 -0.049915284 -0.0467781
000260 8b 3a 72 bc 17 4c 6e 3d 7b d7 ec bc 14 6c ac 3c
       -0.014784466 0.058178034 -0.028911343 0.02104763
000270 c5 5e dd 3c 86 00 5a bd 86 f0 c1 3c f8 55 f8 bd
       0.027022729 -0.053223155 0.02367426 -0.12125772
000280 19 ed d7 bd 0e f1 87 bd 72 d9 a5 3d 30 99 b7 bd
       -0.1054327 -0.066377744 0.08098115 -0.08964765
000290 91 b0 b7 3d 73 dd 41 bd fc fd 1d bc 10 6b 2a 3d
       0.08969224 -0.04733033 -0.009643074 0.04160601
0002a0 55 71 92 3d f0 8a 61 bd 8f c4 a3 bd 71 58 e3 bd
       0.071505226 -0.05506414 -0.07996475 -0.11100853
0002b0 c2 b0 8a 3c 25 68 8d 3d 01 f2 79 bd 25 8c 43 bc
       0.016929988 0.069046296 -0.06102181 -0.0119352685
0002c0 b4 2c 78 bd 93 3f d8 ba 57 7c de bd 7e bf 70 3d
       -0.060589507 -0.0016498439 -0.1086356 0.05877637
0002d0 30 ab df 3c c5 0f 79 bd f2 b6 5c bd 9f 16 6d bd
       0.027303308 -0.060806055 -0.053885408 -0.0578829
0002e0 49 26 fb 3c 1f ba ef bc 1d 91 9b 3c d6 d8 54 3d
       0.030657904 -0.029263554 0.018990094 0.051964603
0002f0 3a 49 6a bd c2 f4 c9 bb 99 5e 5d bd 82 39 9b 3d
       -0.05719874 -0.0061632106 -0.054045293 0.07579328
000300 9a 1f 00 be c4 04 82 bd 25 78 97 3d a7 d0 93 ba
       -0.12512055 -0.06348565 0.073959626 -0.0011277393
000310 5a 75 13 3d d3 f7 c4 3c c1 71 b5 3d 9c ee 65 bd
       0.036000587 0.024043953 0.088595875 -0.05613576
000320 e6 fa 90 3d 69 46 5d 3d 75 c7 cb 3b 6c 08 87 3d
       0.07079105 0.054022226 0.0062188455 0.06593403
000330 eb 86 1b bd b3 be 9e bd 6e 55 b4 bd 86 7b 0a be
       -0.037970465 -0.07751217 -0.08805357 -0.13523683
000340 75 af 5a bc d6 c1 68 bc 30 8d 83 3c 75 6c 91 3d
       -0.013347496 -0.01420637 0.016058534 0.07100765
000350 6a fd 11 bd a8 79 77 bc 52 34 d7 bd e7 4d 81 3d
       -0.035642065 -0.015104689 -0.10508026 0.06313687
000360 1d 33 fa bd 15 12 d0 bd fa c0 fe bd 0b ae bc bd
       -0.1221678 -0.10159699 -0.12439151 -0.092128836
000370 c7 e9 1d bd 1f cc a6 3d 07 a0 02 be fd 57 74 bd
       -0.038553026 0.08144402 -0.12756358 -0.059654225
000380 4b 87 85 ba 03 a3 8f bb c7 fa f2 bd e9 5f 47 bd
       -0.0010187415 -0.004383446 -0.11864238 -0.04867545
000390 9a 2f 7a 3d 54 bc e8 bd c6 78 9d 3d 18 e3 36 3d
       0.061080553 -0.11364046 0.07689051 0.044650167
0003a0 46 55 d1 bc 84 79 12 be 80 1a 16 be a1 c6 98 bd
       -0.025553357 -0.14304167 -0.14658546 -0.074597605
0003b0 d4 c0 8e bc ba 28 a0 3d e6 67 15 3d bc 10 64 bd
       -0.017425932 0.07820268 0.03647604 -0.05568002
0003c0 ad ce 48 bc 15 2c c4 bd f5 0d c2 bd 49 70 5a bd
       -0.012256307 -0.095787205 -0.09475318 -0.05332974
0003d0 7e 32 0d be d7 27 5d 3b 62 af f4 bd 42 2c b8 bc
       -0.13788792 0.003374567 -0.11947514 -0.022482041
0003e0 39 90 8f bd 26 e0 76 3d 39 b2 cc bd 64 c2 b2 bd
       -0.0700993 0.06027236 -0.09994931 -0.08728483
0003f0 50 75 b2 bd 68 9e fd bd e2 96 d5 ba dc 39 04 bd
       -0.08713782 -0.12383729 -0.0016295577 -0.03228174

conv1.0.bias f4 [16]
000000 4d 4a 23 bd 51 16 d5 bd 14 82 0f 3c ae e9 2f 3d
       -0.03986578 -0.10404647 0.00875904 0.042947464
000010 64 58 c0 3d f6 0b b1 bd 0f 08 34 bd e7 08 54 3d
       0.09391859 -0.086448595 -0.043952998 0.051766302
000020 20 43 09 bd d3 bb 95 bd 22 95 8c 3d ef d8 f1 bd
       -0.03351128 -0.07311215 0.06864382 -0.11808955
000030 09 ac a1 3c 9c d3 b0 bc 38 8d 2f bd e1 74 8a 3b
       0.019735353 -0.021585278 -0.042859286 0.004225359

conv2.0.weight f4 [32, 16, 5, 5]
000000 32 d3 4b 3c 6c 36 d6 bc 54 6d 10 bc f3 6f 2d 3d
       0.01244049 -0.026148997 -0.008815128 0.04234309
000010 1f 29 49 bb 44 74 09 bd e1 53 60 bd 16 66 e8 bc
       -0.0030694676 -0.033558145 -0.054767493 -0.02836899
000020 18 b0 50 bd e3 fe a9 3c 5d 38 37 bd 69 9a 50 3b
       -0.050949186 0.020751422 -0.044731487 0.0031830317
000030 c1 45 28 bd 01 c7 00 3c 6a 55 b0 3b 01 51 78 bc
       -0.041082148 0.007859946 0.005381276 -0.015156032
000040 74 24 0d 3c 92 85 8c bc 91 02 2a bd 76 74 d7 3c
       0.008614648 -0.017153535 -0.041506354 0.02630065
000050 6f b8 e3 3c 4b da 14 3d 6e 1c 19 bd a4 3d 05 3d
       0.027797906 0.036340993 -0.03738063 0.03252949
000060 f4 b5 11 bd 37 fa f4 bc 68 7c 24 bd eb 40 ab 3c
       -0.035573915 -0.029904468 -0.040157706 0.020904979
000070 1d 74 58 3b 63 d3 32 3a 4d 31 ee bc 86 95 19 bd
       0.0033028193 0.000682166 -0.029076243 -0.037496112
000080 04 31 e1 3c 07 5c 2b 3d 1d 53 07 3c eb 3a 99 3c
       0.027489193 0.04183581 0.008259562 0.018704852
000090 56 fc 1e 3d 8f a2 6d bc 5e be 0c bd 83 2c 10 bd
       0.038814865 -0.014504089 -0.034361236 -0.0351987
0000a0 06 5f 36 bd 4c 81 96 3c b2 1b e1 3b 6f 2a 11 bd
       -0.044524215 0.0183722 0.0068697566 -0.03544086
0000b0 9b cd b5 3a c5 ac 44 bd 38 4f 21 3d 19 b1 c0 bc
       0.0013870479 -0.04801633 0.03938219 -0.023521947
0000c0 76 fd bf 3c c6 69 50 3c f6 93 4c bc 1c 85 a1 3c
       0.02343629 0.012720531 -0.0124864485 0.019716792
0000d0 ef 98 f5 bc 21 63 34 3c 80 47 4b 3c e7 b0 5c bd
       -0.029980151 0.011009962 0.012407184 -0.053879645
0000e0 35 4f 27 3c 89 cb ef 3b e2 de a5 bc 96 e2 62 3c
       0.0102117555 0.0073179645 -0.02024788 0.013847968
0000f0 71 e0 f4 3b a4 58 ab bc 2f 81 88 bc 82 85 aa 3b
       0.0074730446 -0.02091629 -0.016663162 0.0052039037
000100 e1 17 11 3d 73 48 48 3c 9e 73 16 bd a0 39 de bc
       0.035423163 0.0122243045 -0.036731355 -0.027127087
000110 d9 e6 95 3c a9 1a 53 bd 8f df fb 39 1e ef 4d 3b
       0.018298553 -0.051539097 0.00048041015 0.0031423043
000120 84 ff 9f 3c 5d 29 0b bd 10 12 b2 bc 58 cc 53 bd
       0.019531019 -0.033974994 -0.021737128 -0.05170855
000130 a9 0c 04 bd cc 02 f8 bc 5d 34 0a 3d ea a5 f3 bb
       -0.032238636 -0.030274771 0.033741344 -0.00743555
000140 fd 79 1b bd 40 b0 b7 3c 90 e7 ce 3c 1c 6e a0 ba
       -0.037958134 0.02242291 0.025256902 -0.0012239846
000150 6b 98 19 3d fc ba 0e 3c f2 95 cf 3a 2b b0 13 bc
       0.037498873 0.008711573 0.0015837534 -0.00901417
000160 d3 2f ef 3c a9 47 14 bd e9 ee 16 3d 4a 0f ef bc
       0.029197609 -0.036201153 0.036848936 -0.029182095
000170 a7 83 d5 bc 6b 5b b6 38 2b 88 1f bd ea 27 34 3c
       -0.026063753 8.695464e-05 -0.03894822 0.010995844
000180 bd 87 66 ba 5c 85 81 3c a3 b9 d1 bc fe 91 44 bd
       -0.000879403 0.015810661 -0.025601214 -0.04799079
000190 9d a2 00 bb 0b 0e 2d bd 96 63 56 3b d5 2a 32 bd
       -0.0019628175 -0.04224972 0.0032713166 -0.04349788
0001a0 95 93 a2 bc f4 a2 9e 3c 07 d6 07 bd a9 df e6 bc
       -0.019845763 0.019364811 -0.033163097 -0.028182821
0001b0 33 ca 29 3c 2d 07 ba bc d2 4f 15 3d 30 bd 23 bd
       0.010363149 -0.0227085 0.036453076 -0.039975345
0001c0 c0 57 1d 3d c3 51 4f bd 20 85 82 3c e7 f8 02 3d
       0.038413763 -0.050615083 0.01593262 0.031975653
0001d0 0e 56 ac 3b 6d 97 10 bd d2 ae da bc 8f dc 09 3d
       0.005259282 -0.03530066 -0.026694689 0.033657607
0001e0 a5 b9 86 3c d7 78 32 bd 87 e5 ff bb b1 82 a5 3c
       0.016445944 -0.043572273 -0.007809344 0.02020392
0001f0 81 5e 72 3c 23 57 9b 3c b7 ee 9d 3c 98 4e 42 bd
       0.014793039 0.018962448 0.019278867 -0.047438234
000200 43 0e 27 3d c6 4c 68 3c 2d b8 25 3d dd 94 c0 bc
       0.040785085 0.01417846 0.040458847 -0.023508484
000210 e5 18 47 bd 2a 95 e2 3b ce 26 22 3d 3f a0 08 3d
       -0.048607726 0.0069147544 0.03958779 0.033355948
000220 5e e7 2e 3d 60 f6 12 bd 29 ce 14 bd c0 4d a6 3b
       0.042701118 -0.035879493 -0.036329422 0.0050751865
000230 70 bd d4 3c 71 61 0b bd 9e b5 90 3b 4e bc e9 bc
       0.025969237 -0.034028474 0.0044161817 -0.028532173
000240 af 03 31 bd 23 28 9b 3b 39 41 a5 3a 84 ea da 3c
       -0.043216404 0.0047350093 0.0012607939 0.026723154
000250 d7 04 0c 3d c6 f7 37 bb 8c 94 3e bd aa e1 1a bd
       0.034184303 -0.0028071268 -0.046528384 -0.037812866
000260 d8 69 30 bc 51 c3 c2 3c 44 e8 89 ba 97 4d c6 bc
       -0.010767423 0.023774775 -0.0010521491 -0.02420692
000270 f9 02 8a 3c 2f 33 1b 3d 4b 55 56 bd cb 97 44 bd
       0.01684712 0.03789061 -0.052327435 -0.047996324
000280 fe 56 80 3c 0d 58 ec bc 03 ce c8 3c bb b9 55 bc
       0.015666481 -0.02885058 0.024512297 -0.01304477
000290 85 9c d2 bc c6 29 0d 3d 8a 0b 41 3b 12 9d b1 bc
       -0.0257094 0.034463666 0.002945634 -0.021681342
0002a0 3c 73 e4 3c ad ed fc 3b bc 84 1f bd 98 9d 35 bc
       0.02788698 0.007718763 -0.038944945 -0.011084937
0002b0 a4 9a c0 3c e7 93 38 bd f6 c6 e1 bb 8f 9d 1d bd
       0.023511238 -0.045062926 -0.006890173 -0.038480338
0002c0 2d 85 57 bd b0 21 2f 3d 95 71 6e 3c 0d 56 2c 3d
       -0.05261724 0.042756736 0.014553447 0.042074252
0002d0 81 4c e3 3b 4b 14 34 bd 20 b0 7d 3c 0b f9 28 3d
       0.00693661 -0.043964665 0.015483886 0.04125313
0002e0 5d 97 b8 3c 6f f3 86 3c 25 0b 29 bd 6d a1 13 bd
       0.022533113 0.0164735 -0.041270394 -0.03604262
0002f0 25 22 1e 3c a2 82 1f bd ec f4 09 3d b9 1d 56 bd
       0.009651695 -0.03894294 0.03368084 -0.05227444
000300 f5 6e 1b 3d de 04 50 bd fc 52 3c bd 01 fd 15 3d
       0.037947614 -0.05078589 -0.045977578 0.036618236
000310 9d 92 42 bd f9 af 1c 3d 0e 75 29 bd 25 7e 4e bd
       -0.047503103 0.038253758 -0.041371398 -0.05041327
000320 bc 5f f2 bc 9a 18 69 3c c5 46 4c 3c f4 8e de bc
       -0.029586665 0.014227057 0.012468045 -0.027167775
000330 de 7c 3c bd af 48 23 3c 95 21 ef bc ac 30 66 3a
       -0.04601752 0.00996606 -0.029190818 0.00087810564
000340 c2 dd 93 3c a3 5c 95 3c 73 88 0a 3d f7 f7 af bc
       0.018050078 0.01823265 0.033821534 -0.021480544
000350 03 f8 39 3d 12 55 b6 3c 54 8e ad 3c f3 08 36 bc
       0.045402538 0.022257362 0.021186031 -0.011110532
000360 f5 46 0e 3d cd 63 2a 3d 81 df bb b8 dd 4f 0d bd
       0.03473564 0.041599084 -8.958486e-05 -0.03449999
000370 48 44 37 bc c7 e6 8b 3c 17 9a c5 bc 3c ab 96 3c
       -0.011185713 0.017077817 -0.024121327 0.018392198
000380 f4 2f b9 3c 60 66 10 3c fb 73 df ba 9f 1c 42 bd
       0.022605874 0.008813471 -0.0017048115 -0.047390576
000390 83 66 37 bd 87 06 95 bc 0e 07 bc b9 80 20 6f bc
       -0.044775497 -0.018191589 -0.0003586341 -0.014595151
0003a0 40 07 c0 3c 8a eb 14 bc 06 fc 7a 3c 6f 8c 1e bd
       0.023440957 -0.00908936 0.015318876 -0.038708147
0003b0 34 d6 0d bd ae cb 00 3d bf 2e cf 3c f8 b2 2a bd
       -0.03462811 0.031444244 0.025290845 -0.041674584
0003c0 e7 1d 07 bd b9 30 5d bd f8 c1 64 bd 45 3c 6e bb
       -0.0329875 -0.054001544 -0.055849046 -0.0036351841
0003d0 ed 46 a4 3c 96 08 d6 3c 3e e7 8d bc a8 f4 03 3d
       0.020053351 0.026127141 -0.017322179 0.032215744
0003e0 40 a4 3b bd e7 4e 67 bd 8d b5 0e bd ea 60 52 bb
       -0.045810938 -0.05647173 -0.03484111 -0.0032101222
0003f0 e9 be ba 3c 3b 1c 2c 3d ba 33 02 3d 22 81 19 bd
       0.022796111 0.04201911 0.03178761 -0.037476666

conv2.0.bias f4 [32]
000000 b9 2c fe bc 32 2b 0b bd c4 52 65 bc 34 a3 02 bd
       -0.031027185 -0.03397674 -0.013996784 -0.031893924
000010 48 f5 c6 bc 04 54 6c bc 09 ec 36 bd 94 c8 5b bd
       -0.024286881 -0.014424328 -0.044658694 -0.053658083
000020 eb be 60 bd 6e 30 5b bc eb d8 7e bd a0 44 a8 bd
       -0.054869574 -0.013378246 -0.062218588 -0.08216214
000030 68 c0 e1 bc bc 11 33 bd 1b c7 47 bd ec 03 49 bd
       -0.027557567 -0.043718085 -0.048773866 -0.049076006
000040 f8 48 b8 bc ef 46 37 bd 06 2b a3 bd ad f6 4b bd
       -0.022495732 -0.044745382 -0.079671904 -0.049795795
000050 93 5f e7 bc 77 d5 12 bd cf 81 05 bd 7d e3 78 bd
       -0.028243816 -0.035848107 -0.0325945 -0.060763825
000060 26 df 1c bd 16 38 b8 bd c1 89 d1 bc af bf 48 bd
       -0.03829875 -0.089950725 -0.025578381 -0.04901093
000070 65 d9 a6 bd c1 d9 88 bd f2 5f d2 bc 38 a9 3d bd
       -0.081469335 -0.06682158 -0.025680516 -0.046303958

conv3.0.weight f4 [64, 32, 5, 5]
000000 a6 ed 18 3c bf 25 c4 3c 66 11 73 3c 64 cc aa bc
       0.009334004 0.02394378 0.014835691 -0.020849414
000010 a2 3f 87 bc b6 d5 87 bb e9 b2 7d 3b ed 3a c6 3a
       -0.016509835 -0.0041453494 0.0038711375 0.0015123762
000020 e6 c3 19 bd ca 91 e6 3c ef d9 07 3c 04 40 65 bc
       -0.03754034 0.02814569 0.0082917055 -0.013992313
000030 e1 c4 04 bd 31 2d 1a bd c6 15 c1 bc 29 d5 10 3c
       -0.03241432 -0.037640754 -0.023569953 0.008839884
000040 40 ae 14 bd 5b b7 e7 3c 62 50 e5 ba 07 43 ce bb
       -0.03629899 0.028285673 -0.001749527 -0.0062946114
000050 b1 15 22 bd 43 8a c4 3c e5 5c 15 bd 8d b1 db bc
       -0.039571468 0.02399171 -0.036465544 -0.026818061
000060 65 2f f0 bc d8 ae 54 bd e8 b4 38 bd 23 56 be bc
       -0.029319474 -0.051924556 -0.0450944 -0.023234433
000070 c7 2f d7 bb 49 a3 0f bd a0 33 36 bd 05 2c d0 3c
       -0.006566975 -0.03506783 -0.044482827 0.025411615
000080 72 b6 15 bd e6 73 96 ba f0 ef 27 3c 1d dc 94 bc
       -0.036550947 -0.0011478632 0.010250077 -0.018171364
000090 24 4e 42 3c 3b 7a a7 3c 66 d4 50 bb fc 0d 1e bc
       0.0118594505 0.020444026 -0.003186488 -0.009646889
0000a0 a4 98 1d bd d0 fd 77 3c 4e 66 46 3c 06 5f aa bc
       -0.038475648 0.015136197 0.012109352 -0.020797264
0000b0 ab b9 a0 3c be 33 e9 bc 57 6a 37 3c 58 2f b8 3c
       0.019619783 -0.028467055 0.011194787 0.022483513
0000c0 66 1c c9 bc e0 36 24 bd 08 4f a2 3c 1c 44 7c 3c
       -0.024549674 -0.040091395 0.019813076 0.015397098
0000d0 19 0e 8e bc d7 37 bb 3c b7 9b fd bc 40 25 27 bd
       -0.017340707 0.022853775 -0.03095804 -0.04080701
0000e0 e7 63 16 bd ec 61 c3 3b 97 28 87 bc 8a 3e d6 3b
       -0.036716368 0.005962601 -0.016498847 0.006538217
0000f0 87 ed 1f 3c 62 ed 94 bb 53 d5 13 bc 38 75 b3 3c
       0.009761221 -0.0045449 -0.009023028 0.02190648
000100 0d 1b e1 bc 80 3b 4c ba 7a 20 b7 bc 8b f1 a3 bb
       -0.02747872 -0.00077908486 -0.022354353 -0.0050031594
000110 4c c4 c6 bc 7e ab 31 3c ef 14 9b bc 22 10 c9 b8
       -0.024263524 0.01084411 -0.01893088 -9.587432e-05
000120 ab b8 2a bc 1e a7 c0 bc a8 e2 3b bc fa c5 98 3c
       -0.010420005 -0.023517188 -0.011467613 0.01864909
000130 46 08 04 bd 79 4d 54 bc 88 61 1d bd 5f 9a c9 3c
       -0.032234453 -0.012957924 -0.03842309 0.024609743
000140 bb db 4f 3c 74 62 ca bc 4f 80 05 bc 2c 2b ab 3c
       0.012686665 -0.02470515 -0.008148267 0.02089461
000150 0d 7f 10 3c 99 c3 8f 3c 6b 17 18 bc 49 bf d2 3b
       0.008819354 0.017549323 -0.009282927 0.0064314944
000160 13 2d f7 bc 2e 56 1c bc 2a 12 a3 bc 3f fc 9c bc
       -0.03017286 -0.009542031 -0.019906122 -0.019163249
000170 d8 fe 82 3c e0 2f 82 3c 56 da 2d 3b 23 a6 ed bb
       0.01599066 0.01589197 0.0026527843 -0.007252471
000180 21 c3 9e bc 74 08 8d bc 21 06 2b bd 3b 68 af bc
       -0.019380154 -0.017215945 -0.04175389 -0.021412006
000190 15 c9 6d bd 63 c6 b4 bc f7 0c d8 bb 33 4c 29 ba
       -0.058053095 -0.022067254 -0.0065933424 -0.0006458193
0001a0 38 63 87 3c 5b b6 14 bd 44 0b 48 bb b8 53 04 3c
       0.016526803 -0.03630672 -0.0030524293 0.008076601
0001b0 22 a6 22 bd 59 12 b3 3c 44 d1 2f bd 44 fc 34 bb
       -0.039709218 0.021859335 -0.04292418 -0.0027616182
0001c0 7f 41 24 3c 75 c3 0f 3c 52 bf b0 bc 7d 93 7d 3c
       0.010025381 0.008774628 -0.021575604 0.0154770585
0001d0 af 59 06 bc 2e c8 26 bd 2f e4 26 bc 05 c3 81 bc
       -0.008200093 -0.04071825 -0.010186239 -0.015840063
0001e0 76 5e 94 3c c3 0d 23 bc e0 d7 c6 3c c8 0d a3 bb
       0.018111449 -0.0099520115 0.02427286 -0.004976008
0001f0 8a 23 16 bd 86 72 ce bc 72 f2 51 3c 95 b0 b0 3c
       -0.036654986 -0.025201093 0.012814151 0.021568576
000200 f4 c2 07 3d 54 b3 49 bc 17 0d 21 bd 4f cb dd bc
       0.033144906 -0.012310822 -0.039319124 -0.027074484
000210 34 5a b3 bc 80 81 dd 3c 26 8e c4 bc df 61 f1 bc
       -0.021893598 0.02703929 -0.023993563 -0.029465614
000220 3f cb b7 3c 20 13 10 bc 9c 1e 28 3c d7 30 29 bd
       0.022435782 -0.008793622 0.010261204 -0.041306343
000230 46 c5 ba bc ec e2 b8 bc b1 f4 c7 bb 63 c0 b9 39
       -0.022799145 -0.022569142 -0.0061021675 0.0003542929
000240 9f 7e 30 bd 50 7a 4b 3c e1 f7 8d 3c 0d 58 23 bd
       -0.043089505 0.012419298 0.017330112 -0.039878894
000250 8f a8 35 3c bd e3 07 bd 7b c1 2c bc f6 ac 20 3c
       0.011087551 -0.033176173 -0.010544176 0.009806862
000260 c6 18 72 bc 54 78 54 bc d3 af 98 3c d2 38 10 bd
       -0.014776414 -0.012968142 0.018638527 -0.035210438
000270 1d 30 d5 3c 0e 2f b5 3c c4 7d c3 3c 18 c3 09 3d
       0.026023919 0.022117164 0.02386368 0.03363332
000280 9c e3 fe bb 9c 17 14 bd cb a0 79 3c 40 22 f2 3c
       -0.007778598 -0.03615533 0.01523609 0.029557347
000290 10 6a a2 3c c3 79 a4 3c 67 cb 8c 3c c8 ef 01 3d
       0.019825965 0.020077592 0.017186834 0.031722814
0002a0 00 39 17 bc 7b e3 2a bc b7 17 90 3b 96 ac 1e bd
       -0.009229898 -0.010430212 0.0043973583 -0.03873881
0002b0 a5 bd 8a bc c8 b5 06 bc d9 8d b2 3c db aa 22 bd
       -0.016936133 -0.008222051 0.021796154 -0.03971372
0002c0 57 ed 37 bd 2b 72 d0 b9 b2 cc 1b bd ea 4f f8 bc
       -0.04490408 -0.00039757913 -0.03803701 -0.030311543
0002d0 e5 7b 81 bb 38 37 e3 bc cc 68 bf 3b d8 be de 3c
       -0.003951537 -0.027736291 0.00584135 0.02719061
0002e0 fc eb 7a bc 1f f9 26 3c dd 04 34 bd 72 83 19 bd
       -0.015315052 0.010191231 -0.04394995 -0.03747887
0002f0 bc b5 1e bd 86 8e 8b 3c 9d b0 35 bd aa df 0e bd
       -0.038747534 0.017035734 -0.044357885 -0.03488127
000300 dd fa 81 bc 37 c4 6f bc 22 ae 3b bc ed 8e 12 bd
       -0.015866691 -0.014634184 -0.011455091 -0.035780836
000310 c9 92 75 3c 6e 57 1b bc 49 56 83 3a 33 2e cf bb
       0.01498861 -0.009481294 0.0010020222 -0.006322646
000320 86 f1 0c bd 28 b6 5e bd 07 3d 33 bd ed 9d 0e bd
       -0.034410022 -0.054372936 -0.043759372 -0.03481858
000330 75 f5 40 bd 6f 17 9f bb 10 80 1e bd 33 52 82 bc
       -0.047109086 -0.0048550884 -0.03869635 -0.015908336
000340 6b 60 7d 3c da 05 56 3c 9b fb 24 bd 3c d5 39 bd
       0.015464882 0.013062919 -0.040279012 -0.04536937
000350 06 de 80 3c 6f 99 96 3b 79 43 ac bc e8 80 2d 3c
       0.015730869 0.0045959274 -0.021028267 0.010589816
000360 d2 ba ba bc d6 91 33 3c 56 d1 8a bc 33 36 2c bd
       -0.022794161 0.010960063 -0.016945522 -0.042043876
000370 5b 87 13 bd 35 6a 8f 3c 17 df ae bc 05 bc de 3c
       -0.036017757 0.017506698 -0.021346612 0.027189264
000380 d2 0c e4 bc 04 e8 87 3a 27 71 14 bc ad ac 15 bd
       -0.027838144 0.0010368829 -0.009060181 -0.03654163
000390 4c fc 10 bc f0 71 ed 3b 8e fa 23 bd 20 4f f6 3c
       -0.008849215 0.0072462484 -0.04003387 0.030067027
0003a0 5d 6a 98 bc 3e 1e de bc 10 96 05 bc fa d9 77 3c
       -0.018605405 -0.02711403 -0.0081534535 0.015127653
0003b0 2e 37 b5 bc 27 18 a7 3c 10 41 10 bd fd fe d1 bc
       -0.022121038 0.020397259 -0.0352183 -0.025634283
0003c0 e7 50 33 3c c2 0d 2c bd 12 fa 9a 3b aa 56 49 bb
       0.010944582 -0.042005308 0.0047295177 -0.0030721822
0003d0 4c 03 e9 3b a6 ca 16 bd 76 24 cb bc 07 75 82 3c
       0.0071109887 -0.036814354 -0.02479766 0.015924944
0003e0 ab 66 f7 ba 53 ec e0 3c 53 98 c0 bb a0 f2 97 b9
       -0.0018875202 0.027456438 -0.0058775335 -0.00028981734
0003f0 6a db e7 3c f3 ec 9e 3b 16 12 54 bc b5 39 d2 bc
       0.028302867 0.004850024 -0.012943765 -0.025662282

conv3.0.bias f4 [64]
000000 cc 42 db bc 0c 01 8c bc 39 de 91 bc f3 f7 bf bc
       -0.02676525 -0.017090343 -0.01780616 -0.023433661
000010 60 93 bf bc 98 34 73 bd fe 9d 59 bd 24 bd 52 bd
       -0.023385704 -0.05937633 -0.05312919 -0.05144991
000020 f0 43 30 bd cf df 52 bd 16 2c 83 bc e2 5c c3 bc
       -0.04303354 -0.05148297 -0.016012233 -0.023848
000030 a4 c0 82 bc e9 28 c9 bc 92 52 50 bd 65 5c 9a bc
       -0.015960999 -0.02455564 -0.050859995 -0.018842885
000040 f5 7e 73 bd 4b 57 ed bc 74 49 18 bc bf 82 16 bd
       -0.059447248 -0.028972289 -0.009294856 -0.036745783
000050 71 e2 e3 bc c2 83 2e bd 62 0d a0 bc 62 9a 96 bc
       -0.027817937 -0.042606123 -0.019537631 -0.018384162
000060 db 2d 50 bd 93 be 29 bc 04 8e 80 bd cd b2 ce bd
       -0.05082498 -0.010360378 -0.06277087 -0.10092697
000070 94 c9 e2 bc 23 1d 59 bd bb 0d 46 bc 0c cd 1e bd
       -0.02768401 -0.053006303 -0.012088235 -0.038769767
000080 32 92 f1 bb 4a 9c 1e bd e2 a8 b0 bc 73 19 1d bd
       -0.007372164 -0.038723268 -0.021564905 -0.03835435
000090 5f 46 37 bd 94 0e 4b bd b7 49 2c bd c5 48 dc bc
       -0.044744845 -0.04957445 -0.042062487 -0.026890168
0000a0 4b 5a 2e bc ef 64 14 bd 3e 4d 4d bc a3 8f 11 bd
       -0.010641645 -0.03622907 -0.012530623 -0.035537373
0000b0 af 23 c6 bc 04 74 8e bd 57 8d 30 bd de 01 1c bd
       -0.024186937 -0.06955722 -0.043103542 -0.03808772
0000c0 18 7c 01 bd 1d a5 1d bd fb c4 ae bc 76 b7 85 bc
       -0.031612486 -0.038487542 -0.021334162 -0.016322833
0000d0 66 1d d9 bc 06 15 6d bb f7 c6 8f bc 17 62 10 bd
       -0.026503276 -0.003617586 -0.017550929 -0.035249796
0000e0 df 1a 31 bd 33 b2 e6 bc 61 36 85 bd fb 8b bd bc
       -0.043238517 -0.028161144 -0.065045126 -0.023138037
0000f0 85 18 71 bd 2e 0c 51 bd 5d 66 3e bd 51 f0 29 bd
       -0.058861274 -0.051037006 -0.04648434 -0.04148895

out.weight f4 [7, 2304]
000000 83 cb 9e 3b 5c 31 17 bc 1a 43 2c bc ee 10 db bb
       0.004846038 -0.009228077 -0.010514045 -0.006685368
000010 31 d5 4f 3c 4d 5a 5a bc 8f 53 ae 3b 21 18 15 bb
       0.012685106 -0.013327193 0.0053200196 -0.0022749978
000020 1e e3 6b 3a 09 70 27 bc d3 be 7a 3c 5c b5 8f 3b
       0.00089983817 -0.010219582 0.015304285 0.0043856334
000030 bf 40 fa 3b bb ed c2 3b 18 12 a3 bc df fe c8 bc
       0.007637113 0.00594875 -0.019906089 -0.024535595
000040 e9 1d 8f bc c2 2d 25 3c c6 e6 42 3c 6f e6 3e bc
       -0.017470317 0.01008171 0.011895841 -0.011651619
000050 48 2b 80 bc c0 8a ad bc 13 00 3c 37 89 b3 3e bc
       -0.015645638 -0.021184325 1.12056905e-05 -0.011639484
000060 47 e2 77 bc 0a 7c 5d bc 6a 0f 42 ba 96 8b e2 bb
       -0.015129632 -0.013518343 -0.00074028096 -0.0069136126
000070 ef 3e ca bc 89 11 fd b9 5a ed 3d bc fc ca a9 bc
       -0.024688212 -0.00048268985 -0.011592234 -0.020726673
000080 ad e7 31 bc 76 b0 a3 bc 66 e1 30 bc b6 3d de bc
       -0.0108584585 -0.019981604 -0.010795927 -0.027129035
000090 ee ca 10 ba 3e 97 ce bc bd e1 1b 38 37 08 1d 3c
       -0.0005523403 -0.025218602 3.7165115e-05 0.009584478
0000a0 37 a7 07 bb ea 57 85 b8 c5 ae 86 3b 52 95 ca 3b
       -0.0020699033 -6.3583095e-05 0.0041101896 0.006182351
0000b0 b1 a5 66 bc a2 ad 20 ba 97 65 88 ba 60 70 98 bb
       -0.01407759 -0.0006129389 -0.0010406253 -0.004652068
0000c0 ae 35 0b 3c f4 f1 fe 3b c1 1f 52 3c 0b 4f fc 3a
       0.008496685 0.007780308 0.0128249535 0.0019249631
0000d0 cb 6a 03 bc d8 5b 61 bb 13 a6 2d 3c 05 86 c0 3b
       -0.008021067 -0.0034387019 0.010598677 0.0058753514
0000e0 34 09 99 b9 4f 43 c3 bc db db 24 bb 17 9f 27 bc
       -0.0002918929 -0.023835806 -0.0025155458 -0.010230801
0000f0 1b 5d 70 b9 95 59 cf bc 7b 1a da b9 60 59 5c 3c
       -0.00022922868 -0.02531127 -0.0004159993 0.013449043
000100 e9 ed 59 bb 68 62 a9 3a 23 99 fc bb 91 77 95 3b
       -0.0033253378 0.0012923004 -0.007708685 0.0045613726
000110 4b 1a c9 bc 64 f0 7a bc ed 42 1e bc e7 cf 90 bc
       -0.02454867 -0.015316103 -0.009659511 -0.01767726
000120 2c d6 9b be 55 19 50 be 72 bc 20 be 7f f8 b7 bd
       -0.30436838 -0.20322163 -0.15696886 -0.08982944
000130 90 b0 54 bd 92 b4 bc bb 6f c1 9e be 75 2a b2 be
       -0.051926196 -0.0057588303 -0.31006953 -0.34798017
000140 2e 64 ac be f0 47 a8 be f5 fc 98 be 07 03 e4 bd
       -0.3367018 -0.32867384 -0.2988049 -0.1113339
000150 94 16 b2 be c6 60 a7 be 70 59 b0 be f0 7e b4 be
       -0.3478285 -0.3269102 -0.34443235 -0.35253096
000160 e0 4b ad be 91 80 ef bd e4 71 9d be 64 2d ae be
       -0.3384695 -0.11694444 -0.30750954 -0.34019005
000170 bc af b1 be b6 24 b3 be e8 bf 9e be 53 9d 19 be
       -0.34704387 -0.34988946 -0.31005788 -0.1500142
000180 c0 9c a9 be 79 e7 a4 be cf 63 aa be 2f 86 ad be
       -0.33127403 -0.3220785 -0.33279273 -0.33891436
000190 03 8f 9c be 21 9d 77 be 42 04 d4 bd 83 01 97 be
       -0.3057786 -0.24181034 -0.103523746 -0.2949334
0001a0 b5 59 94 be 6c a5 89 be e5 ed 8a be a6 ee 93 be
       -0.2897469 -0.2688402 -0.27134624 -0.28893012
0001b0 cb 21 bf 3b 1d 61 75 3c 25 95 19 bc be 60 b4 ba
       0.005832886 0.014976767 -0.009373938 -0.0013761742
0001c0 98 59 d7 bc 82 02 19 bc 4c b9 b5 bc 62 d6 e3 bb
       -0.026287839 -0.009338977 -0.022183083 -0.0069530467
0001d0 fe e9 b7 bb ef 7b 8d bb a2 d8 63 3c 45 a7 96 3a
       -0.005612611 -0.0043177526 0.01390663 0.0011493942
0001e0 54 09 34 3c e1 76 ac bc bb a1 04 bc fa 7e 51 3a
       0.010988552 -0.02105278 -0.0080952 0.0007991638
0001f0 90 6d 24 bc ed 73 3d 3c 41 50 b0 3b f8 bf 3f 3b
       -0.010035887 0.011563283 0.0053806608 0.002925871
000200 c4 3b ad bc be 5a 7f bc 1a 85 41 3b a6 0e d7 bb
       -0.021146663 -0.0155855995 0.0029528798 -0.0065630255
000210 ab ff 32 bc 95 f5 cf 3b ec e2 ff 3b 24 45 ad bc
       -0.010925214 0.0063464143 0.0078090336 -0.021151133
000220 d6 84 17 3a be dd 13 bb 8c b1 36 ba 1c e2 97 bc
       0.0005779987 -0.0022562589 -0.00069692056 -0.018540435
000230 63 f7 7e bc 56 fe 97 bc 23 b6 25 3b 3e 3a 7a ba
       -0.015561911 -0.018553894 0.0025285564 -0.0009545422
000240 ca 28 b5 3b 74 1d c8 bb ab f0 8f bc 57 4b af bc
       0.005528544 -0.0061070267 -0.017570814 -0.02139823
000250 b1 e7 cc bc 7c 4e 56 3c 86 ad b0 bc 63 6d b1 ba
       -0.025012823 0.013080236 -0.021567117 -0.0013536628
000260 0d c6 0d ba 59 04 22 bc 25 e6 64 bc e8 3a 89 3a
       -0.0005408235 -0.009888732 -0.013970886 0.0010469826
000270 eb 85 89 bb fb ab 25 bc b0 83 a9 3b d2 f4 3f bb
       -0.0041968725 -0.010111804 0.005173169 -0.0029290211
000280 a3 67 19 3c 41 f5 de bc 90 7a 84 3a a7 1e 9e bb
       0.009363088 -0.027216556 0.0010107327 -0.0048254314
000290 91 bc 4a 3c 5b a2 43 bb 22 77 9c 3b 92 96 71 bc
       0.012374059 -0.002985141 0.004774944 -0.014745371
0002a0 c5 78 b3 bc 11 b5 fe 39 e7 60 b9 ba b0 2a ed 3a
       -0.021908173 0.0004858156 -0.0014143259 0.0018094387
0002b0 9a 25 36 bb aa 33 a6 3b 42 46 38 3c c6 bf 09 3c
       -0.0027793408 0.005072077 0.0112472195 0.008407539
0002c0 52 26 5f 3b 67 1a 66 3c 1a 28 bf bc 0e 31 cf bc
       0.003404994 0.014044381 -0.023334552 -0.025291946
0002d0 1b 34 c2 bc dd 8e 48 bc ad 56 79 3b 0a 8c b3 bc
       -0.023706486 -0.0122410925 0.0038046048 -0.021917362
0002e0 64 59 bb bb f2 74 a5 39 34 11 87 bc 2a 9b 2a bc
       -0.0057174433 0.00031558383 -0.016487695 -0.010412971
0002f0 1b 7e a3 3b e7 09 8e bc e7 15 69 3c dc 23 82 bc
       0.004989398 -0.017338706 0.014226413 -0.01588624
000300 53 1f b8 ba 4a 5c 7f 3c af d2 37 bc 8c ec 63 3c
       -0.0014047421 0.015585968 -0.0112196645 0.013911378
000310 fb 7f e6 3b a8 29 cd bc 90 e9 a3 3b c4 9f 2f bc
       0.0070342994 -0.025044277 0.005002208 -0.010719243
000320 fd ec 5d bc 50 63 07 3c 9a a4 a7 bb 4a fb c5 3a
       -0.013545272 0.008263424 -0.0051160576 0.0015104797
000330 e0 ea 39 3b d7 2f 19 bc 9a c6 d2 3b 95 de 4b b9
       0.0028368756 -0.009349785 0.0064323666 -0.00019442507
000340 2d 7d 36 bc f9 32 a6 bc 34 39 4b bc 1d 6b 8b bb
       -0.011138243 -0.020287978 -0.012403775 -0.0042547123
000350 bc bf 2e bc 80 02 90 bc 82 d6 9c bc 7b 9a 41 3c
       -0.01066583 -0.017579317 -0.019145254 0.011816616
000360 21 a8 2e bc 0e b8 a6 b8 9c fa 00 3c ec 5e 87 bc
       -0.010660202 -7.94978e-05 0.00787225 -0.016524754
000370 6c c3 6e bc 0d 76 52 3c f5 27 c0 bb 5d fc 29 bc
       -0.014572959 0.012845528 -0.0058641382 -0.0103751095
000380 c3 c3 aa bc 13 f0 e6 3b 9b a3 4e bc f6 0d bc 3b
       -0.0208453 0.007047662 -0.012612249 0.005738969
000390 44 9e 95 bc f3 97 88 ba 68 ef 0a b9 50 c5 08 3b
       -0.018263943 -0.0010421261 -0.00013249891 0.002086956
0003a0 1c 40 10 ba 5c 5d 53 bc 9c 0a 46 3c dd db be bb
       -0.0005502717 -0.012900677 0.01208749 -0.0058245496
0003b0 a7 d7 7a 3c 95 e6 32 bc ab 89 c2 3a a5 30 10 3b
       0.015310205 -0.010919233 0.0014842054 0.002200165
0003c0 ba 84 a3 3b 59 6c d6 bc 82 2f 99 b9 db 09 5c 3c
       0.0049901875 -0.026174711 -0.0002921783 0.013430084
0003d0 9c 90 94 bc 5e 83 61 3c 95 8d c2 bc 65 c3 1d bc
       -0.018135361 0.013764231 -0.023749152 -0.009629105
0003e0 4b a6 aa bc e0 cf a3 bc 76 fc c4 bb 9b 30 87 bc
       -0.020831248 -0.019996583 -0.006011541 -0.01650267
0003f0 99 4e d1 bc ff 3a 60 bb 0c 81 c7 bc 71 5d 9c bb
       -0.025550174 -0.0034214852 -0.024353527 -0.0047718813

out.bias f4 [7]
000000 e7 ae 46 be 96 d7 06 c0 d3 88 17 be 44 8e dc 3e
       -0.19402657 -2.1069083 -0.14798288 0.4307729
000010 58 37 ac 3d e4 86 8b 3d 4f 90 ac be
       0.084089935 0.06812838 -0.3370385
